krish-naik-tutorials/diabetes.pt (torch, 5541 bytes, 6 tensors)

weight f4 [20, 8]
00000000: a45a 053f fe59 25bf fcb7 5a3e 80fd 913c
00000010: b73c 27bf 3958 c33e 09e0 163f 75cb bc3b
00000020: 72a6 51be 34fb 883e 18bb a6be 5cbd 2dbe
00000030: 27fe 773e 08b5 4fbe 590d 453e deb7 cf3d
00000040: 33c3 33be 7394 c4bd 6884 943d ccf6 d4be
00000050: 9241 933d 856b 39be 88fa a13e 1d55 84be
00000060: c85b cfbe 9cec 3cbc 88ea 063e 8db0 383e
00000070: 13ee ee3c ba83 413e 570e cabf cb3b ccbe
00000080: a341 873e ecd1 d7bd 8349 f9bd 95cb fcbd
00000090: cc5b 3cbe f910 7cbc 5841 43be 2629 d23d
000000a0: 8414 e8be c83b 513e a6fe b7bd 36af e63c
000000b0: d712 f23d a126 94be 6b00 a9bf 77c3 15bf
000000c0: 32da 263e fe70 afbe e81b a6be 2be4 90bc
000000d0: 8db9 ef3d d01e 803e 9a76 62bf df13 053f
000000e0: f58a 0ebd 303d 9b3e 40f3 17be 4de6 7c3e
000000f0: 6b4d 7b3e 0f9d 16be 3e84 5a3e 5513 7f3e
00000100: 2ebc bfbe 2a4c c83d 7859 c2be ee91 523e
00000110: 5804 4e3d 9964 c5be 7b4a d53e fd90 ef3e
00000120: fc64 afbc 7a33 263e a25b 843d 47d2 c2be
00000130: 60ec 18bc 860b 9fbe 55ab aebf dd07 843e
00000140: 8110 a0be ea85 cfbe 09ac 993e f01c 9c3e
00000150: f35c f93d fc04 27be d635 a53f ec56 65bf
00000160: ee0a debd 3faf 8e3e 24fd c8be a783 0abf
00000170: c4b4 0bbe 232c 543e f580 f9be e628 75be
00000180: 6e2c 253f 093e 3c3e 5f3c a3be 1d18 ee3e
00000190: 1d26 293e a30d fbbd 47c4 11bf 0c58 a9be
000001a0: a3d2 4e3c 52d0 77be 96c3 b33e 5f69 8b3e
000001b0: 0280 90bd daaa 9cbe 1d75 4bbf 5eb7 5d3e
000001c0: 9127 2ebf e477 7aba f76a b33d 3624 8e3e
000001d0: f530 913e 7595 94be f91f 693f db1a 9dbe
000001e0: aebc 8fbe 9924 a63e 8d2a 243d 8f8b f23d
000001f0: 0f06 4cbe d028 f83d 9ad3 313f 743f 813e
00000200: e8a9 8ebe c12f 6b3e 638a e93b ef43 5b3d
00000210: ac16 fcbd b978 6bbe dd7b 47bf 4c6a 873e
00000220: 0213 da3d 337c 7cbe 4ee3 043d 95ee 39bd
00000230: 978e 9c3d 4d18 0ebe f77e 603e 45cc 98be
00000240: 8073 723d 7a96 38be 0ea2 883e 3bb1 9dbe
00000250: 246c a13d 1701 a23e 6270 b9bf c053 63be
00000260: 924a 0e3f 57e4 32be d9a4 413e 8917 f2bd
00000270: aec3 c53d 2673 7f3d 52f4 883f 7629 e7bd
0.5209143 -0.6459044 0.21359247 0.017821074 -0.6532702 0.38153246 0.589356 0.0057615587
-0.2047365 0.26754153 -0.32564616 -0.16966766 0.24218045 -0.20283902 0.19243373 0.10142492
-0.17554931 -0.09598627 0.07251817 -0.4159454 0.07190241 -0.18107422 0.31636453 -0.25846186
-0.4049971 -0.011531021 0.13175404 0.18036099 0.029166257 0.18897906 -1.5785626 -0.39889368
0.26417264 -0.10538086 -0.121722244 -0.12343518 -0.18394393 -0.015384906 -0.19067895 0.10261755
-0.45328152 0.20432961 -0.08984117 0.028159719 0.1182 -0.28935722 -1.3203253 -0.5850138
0.16294172 -0.34265894 -0.32443166 -0.017686924 0.11705313 0.25023508 -0.8846222 0.51983446
-0.03480049 0.3032012 -0.14838886 0.24697228 0.24541251 -0.1470835 0.21339509 0.24909718
-0.37448257 0.09780152 -0.37958884 0.2056348 0.05029711 -0.38553312 0.41658387 0.46790305
-0.021410458 0.16230574 0.0646279 -0.38051054 -0.0093337 -0.3106348 -1.3646036 0.2578725
-0.3126259 -0.40531856 0.30014065 0.30490828 0.12175932 -0.16310495 1.2907054 -0.8958576
-0.108419284 0.27868077 -0.3925563 -0.54107136 -0.13643175 0.20719962 -0.487312 -0.23941383
0.6452092 0.1838304 -0.31881997 0.46502772 0.16518445 -0.122584604 -0.5694012 -0.33074987
0.012623462 -0.24200562 0.35110158 0.2722883 -0.070556656 -0.305991 -0.79475576 0.2165198
-0.68029124 -0.0009554608 0.08760636 0.27762002 0.28357664 -0.29020277 0.9106441 -0.30684552
-0.2807364 0.32449797 0.040079642 0.11843025 -0.19924186 0.12117159 0.69463503 0.25243723
-0.27864003 0.22967435 0.0071270927 0.053531583 -0.12309012 -0.22995271 -0.77923375 0.26448286
0.10648157 -0.24656753 0.032443337 -0.045393545 0.07644384 -0.13876458 0.21923433 -0.29843345
0.05919218 -0.18026152 0.26686138 -0.3079928 0.07881954 0.31641456 -1.4487422 -0.22199917
0.55582535 -0.17469917 0.1891054 -0.11820895 0.096564636 0.062365673 1.0699561 -0.11287205

bias f4 [20]
00000000: b70c 22be 07e9 9dbf 1008 abbe 5da1 ee3f
00000010: 3183 a43d 5e07 813e 0346 15bf d50f ab3e
00000020: 2c37 5c3f 0da4 ec3f c6dc b73d 4ff2 b93e
00000030: 48fb 4cbe 911b c73f f2ca 04bf 2832 98bf
00000040: 0b02 a13f 1422 62bd 90e5 0a40 9800 95be
-0.15825163 -1.2336739 -0.3340459 1.8642994 0.08032835 0.25200933 -0.58309954 0.33410516
0.86021686 1.8487564 0.08977656 0.3631768 -0.20017731 1.5555288 -0.5187217 -1.1890306
1.2578748 -0.05520828 2.1702614 -0.29102015

weight f4 [20, 20]
00000000: df3f 91be 4336 b6bc 49a2 933d dad6 803e
00000010: 6155 38be 5bab 9d3d bad9 87be ccc6 ee3d
00000020: 6e75 06be 8666 093e 35e6 a73f 71e1 5d3e
00000030: 4505 5e3c d244 ad3d c7b3 bb3d d27f 1fbe
00000040: 5dfa 443e 1a9e f4bd 7d14 9cbd c43a 4f3e
00000050: 1208 0c3e d6ae 13bd 4c8a 1f3e dfef 393e
00000060: e6af c23d 0e8d 823e 2676 f53c 1fff 083d
00000070: 4f88 5ebe 578d a83d 7c34 4d3f 974a c73e
00000080: 4bce 353d afa5 a3bd 052c 4ebe c3ae 70bd
00000090: 8c4b d23d 63a7 1fbe 9597 5a3e 476b c1bd
000000a0: eaad b23c 739c 723d dfa1 35bd aea5 293d
000000b0: 1127 503e 9263 453b ac6a cc3d 558b 86be
000000c0: 94ea d5bd 2118 1dbe 4e0d 183e a2cc 423e
000000d0: 2e49 82bd c4b9 283d e983 b13d 7bc0 12be
000000e0: 6aca 8b3c b20f 253e 051b 4ebe 6d89 58be
000000f0: 40c2 9fbe 5158 db3c 9b7c 233d 4390 28be
00000100: d2fc 113e 6d6a 8fbe cb75 e2bd 774c 32be
00000110: e8e6 833d 2ba8 afbe 5160 413e 35fb a6be
00000120: 5104 89bd f52b 1fbe c4c2 a5bd dd60 c03d
00000130: e388 b6bc 51e3 423d 5425 7d3d 47b7 863d
00000140: 1c74 de3e cbb3 96bd 8b64 c9bd b046 d5bd
00000150: 2008 3bbe 0611 22bf e8fd f23e b8ff 233e
00000160: 49e5 92bf c798 28be f9c6 44bf 7c47 2f3d
00000170: 4e1b 87be 022c 45bd 0451 633e a4c1 2ebd
00000180: d986 0dbe 34f3 39bc c26e 17bd f16e 223e
00000190: 1d5a de3e fe10 0e3d c215 76bd 1060 5fbe
000001a0: c3e0 bdbb f5dd bc3d e53e e83d 7ce6 3b3e
000001b0: bb8b 9b3d 6b77 393d ef73 7ebf d755 17be
000001c0: eac3 30be 57cb e23d c7c1 d1bd 9803 c53d
000001d0: 7a68 553d 857a 26be 7467 28bd 9a1b 053c
000001e0: a03d 20be 96f6 fbbc a6cc 993c 28a0 d7bd
000001f0: b2a5 d83d 23f8 0dbd 6990 63be 6225 453e
00000200: fb57 133d 7fbe d9bd 93ae 8f3f dd1e f43d
00000210: 3534 bebd db8a f0bd 5189 bbbc 0861 0ebe
00000220: e7c2 143e cede 1e3e 21e4 7b3e f259 113e
00000230: ab7c 503e f264 3d3d e5b8 f5bc 5413 b73e
00000240: bef5 fbbd 65e6 53be f6b3 e3bf bb11 8fbe
00000250: c4d1 e23d a76f d7bc 0bc2 bc3e dc43 8cbd
00000260: 0a3d 81be ce65 64be 7b9a 88be f3df 193e
00000270: b895 22be d023 d3bd 5e68 e5bd 1d37 0f3e
00000280: 19a7 103e d4e2 62be 8160 30bc 667c 41bd
00000290: 2806 3cbe 9cbc df3d 64d2 dfbe 331d 59be
000002a0: 01ff 8e3d dd34 8dbc ead7 f53d 52a1 a1be
000002b0: 3bd2 54bd 7de2 3dbd f167 483d aa68 d23d
000002c0: af3f 21be b31c 52bd 19d6 93bd 5f17 4abe
000002d0: 8c8c dbbd 010e 8abc 2f16 d1bd cd19 5dbc
000002e0: 8f6c 36be 8982 9bbd 34e6 e5bd 8b39 86be
000002f0: 3d65 f43d d3e9 4fbd 2c88 103e a807 e33d
00000300: 0710 103d f4df 123e b7c3 26be 946e 7dbd
00000310: 3512 70be 47eb 4a3e 3dd4 46bd daf6 5abe
00000320: 5ba9 bfbe afa7 a2be 7752 c4be 706e 473c
00000330: 9791 31be 9d01 76be 5a2c 83be 80ee a6be
00000340: b338 503c 5413 2d3e 3291 01be 32de bf3d
00000350: af44 debd 07c9 a93e c328 133e ced9 653d
00000360: 390f 8fbd bdec 44be f236 bc3e 6051 353d
00000370: 7757 4fbd f639 663c c5e5 073e 220d f7bb
00000380: 2317 343e e18e 1b3e a6fb 273d 98b3 463e
00000390: 1e9a 023d 2fe4 d4bd f67f 723f 3578 3ebd
000003a0: 8d21 463e d17f 383f 9a36 5f3d 3acf 5fbe
000003b0: 3be6 babd 14f3 22be 19a5 cabd 3b9c 49be
000003c0: 52f4 25bd 1a33 fc3b 8a47 163d e634 a1be
000003d0: ea27 30be 6a25 813c 5f90 353e 9f44 1c3e
000003e0: 7278 afbd c08e 61bb e26e 4fbf c36a 16be
000003f0: 9f6c da3d 96eb 143e 7990 923d 0efb cb3d
-0.28369042 -0.02224267 0.07208688 0.2516392 -0.1800132 0.07698699 -0.265333 0.11659011
-0.13130733 0.13418016 1.3117129 0.2166803 0.013551061 0.08460392 0.09165149 -0.15576103
0.19236131 -0.11944218 -0.07621095 0.20237261 0.13674954 -0.03605541 0.155801 0.1815791
0.09506206 0.2549824 0.029963564 0.033446427 -0.21731685 0.082300834 0.8015821 0.38924095
0.04438619 -0.07990586 -0.2013398 -0.058760416 0.10268316 -0.15591197 0.21346886 -0.0944429
0.021811444 0.059231233 -0.044343825 0.04141777 0.20327403 0.0030119163 0.099812835 -0.26278177
-0.10445133 -0.15341236 0.14848825 0.19023374 -0.06361614 0.041192785 0.08667738 -0.14331238
0.017064292 0.16119269 -0.20127495 -0.21146174 -0.31202888 0.026775511 0.039913755 -0.16461281
0.142566 -0.28010884 -0.110576235 -0.17411982 0.06440526 -0.3430799 0.18884398 -0.3261353
-0.066902764 -0.15544112 -0.08093789 0.09393475 -0.02228207 0.047580067 0.061803177 0.06577926
0.4344796 -0.073585115 -0.0983363 -0.10413873 -0.18264818 -0.63307226 0.4745934 0.16015518
-1.1476222 -0.1646453 -0.7686611 0.042792782 -0.2638802 -0.048137672 0.22198874 -0.04266514
-0.13820972 -0.011349488 -0.03697086 0.15862633 0.43428126 0.034684174 -0.060079344 -0.21813989
-0.005794616 0.092220224 0.11340121 0.18349642 0.07595011 0.0452799 -0.9939565 -0.14778839
-0.17262235 0.1107394 -0.10242038 0.09619826 0.05210159 -0.16257675 -0.041114286 0.0081242565
-0.15648508 -0.03075723 0.018774342 -0.10528594 0.10578479 -0.03466047 -0.22223057 0.19252542
0.035972577 -0.10632037 1.1225151 0.11919949 -0.092873015 -0.117452346 -0.022892626 -0.13904202
0.14527474 0.1551468 0.24598743 0.14194468 0.20360057 0.046238847 -0.029995391 0.35756934
-0.12302731 -0.20693357 -1.7789295 -0.27943215 0.11075166 -0.026298357 0.36866793 -0.06848881
-0.25241882 -0.2230446 -0.2668036 0.15026836 -0.15877426 -0.10309565 -0.11201547 0.13985868
0.14126243 -0.2215684 -0.010765196 -0.047237776 -0.18361723 0.10924646 -0.43715203 -0.21202545
0.06982232 -0.017237121 0.12004073 -0.3156839 -0.051958304 -0.046358574 0.04892725 0.10273869
-0.1574695 -0.0512969 -0.0721857 -0.19735478 -0.107201666 -0.01685238 -0.10209309 -0.013494921
-0.1781485 -0.07593257 -0.112255484 -0.26215777 0.11933372 -0.0507601 0.14114445 0.11085445
0.035171535 0.14343244 -0.16285597 -0.061873034 -0.23444445 0.19816314 -0.04854225 -0.21383229
-0.37433895 -0.31768557 -0.38344166 0.012172326 -0.17340694 -0.24024053 -0.25619775 -0.32603836
0.012708831 0.16901904 -0.12653044 0.09368552 -0.10852944 0.33161184 0.14371018 0.056115918
-0.06985325 -0.19230933 0.3676067 0.04426706 -0.050620522 0.014051905 0.13271244 -0.0075394074
0.17586951 0.15191223 0.041011475 0.19404447 0.03188526 -0.10395085 0.947265 -0.046501357
0.19348736 0.7207003 0.05449543 -0.21856394 -0.09125944 -0.1591304 -0.09894771 -0.19688503
-0.040516205 0.0076965215 0.03668932 -0.3148567 -0.17202726 0.01576491 0.17730854 0.15260552
-0.08567895 -0.003441736 -0.8102857 -0.14689164 0.10665249 0.14542994 0.07156462 0.09959994

bias f4 [20]
00000000: a726 743f 2f19 a13f c288 afbd 353b 36be
00000010: 2a4d 9ebf 3874 46bf 3c47 6f3f f218 5cbe
00000020: 2534 9bbd 17eb 26be b09f e63e d7b6 433f
00000030: 60c5 61bf 3bf9 2dbe 8a6f d9be 015f bebf
00000040: 9a5f b9bf ab3f 16be 8070 f33d 16ba aa3f
0.9537148 1.258581 -0.08571006 -0.17796023 -1.2367299 -0.77521086 0.9346807 -0.21493891
-0.07578305 -0.16300617 0.45043707 0.76450866 -0.88191795 -0.16989605 -0.4246791 -1.4872743
-1.44823 -0.14672725 0.11886692 1.3338039

weight f4 [2, 20]
00000000: 9198 d53d 4b0e a53e b799 14be 4499 153e
00000010: b2fa 51bf 170d 843c 7e0a 1dbd a7ff f03d
00000020: 849f 883e 8fa0 d0bd 21e5 c83e 6737 b23d
00000030: fecc 63be f4a5 953c b6b3 4c3c f7e4 1fbe
00000040: 95d8 1abe cee6 7bbd 49a9 643d 5eb8 a83e
00000050: 0b50 c3bd 87e6 493d 23e3 c4bd 0d38 633d
00000060: 638e 013f 32cf 4f3e acf3 02be 9b48 aa3d
00000070: d4e9 1a3e 8291 25be 6986 e3be a5e7 0fbe
00000080: 7302 a23d 79ec 0b3d 7873 a83d 19f4 993e
00000090: ecfb 903e c0fc be3d 0085 663d f8e8 7ebe
0.1042949 0.32237467 -0.14511763 0.14609247 -0.82023156 0.016119523 -0.038340084 0.11767512
0.266842 -0.10186874 0.3923731 0.087019734 -0.22246167 0.01826761 0.012494018 -0.15614687
-0.15121682 -0.06149941 0.055825505 0.3295316 -0.09536751 0.049292114 -0.096136354 0.055473376
0.5060789 0.20293882 -0.12788266 0.0831463 0.15128261 -0.16168788 -0.44438484 -0.14053209
0.079106234 0.034161065 0.08225149 0.30069044 0.283172 0.09325552 0.056279182 -0.24893558

bias f4 [2]
00000000: 18fa 683f 46a9 a0bf
0.9100661 -1.2551658
