Valerio-Velardo/feedforwardnet.pth (torch, 816019 bytes, 4 tensors)

dense_layers.0.weight f4 [256, 784]
00000000: 812f 4e3b d54b b0bc f38a e03c ce84 b4bc
00000010: c064 8a3c 55f5 d33c 9f8d 053d 2b3e 09bd
00000020: b00f 03bd 5cac 2fbb aadb 793c d3f4 bbbb
00000030: 348e 0ebd 2599 a1bb 25c7 a2bb ec26 bfbc
00000040: b842 dfbc d7cd 9a3c 13ed c2bc 6e7b 5b38
00000050: 7e3c c7bc 156f a8bc 3e65 0dbd 7392 063c
00000060: 9339 113b ca86 dcbc 0120 dbba 81e9 b8bc
00000070: b7e1 56ba 2e18 6bbc 4307 adbc b848 7abc
00000080: 53c1 67bc 6a8a 063d a5a2 12bb 981d 293b
00000090: fa9a 5dbd 9453 d6bc ed07 3abc d260 98bb
000000a0: 8ee2 b53c d975 63bd b978 083e e9b9 493e
000000b0: 8a3c dcbb bdee a3bd 0774 e13c 24a0 163e
000000c0: a457 f03d 0b67 9d3d 6200 843c 9c00 a1bb
000000d0: 9eea d5bc 9304 51bc 3786 b53c 5505 ce3c
000000e0: c11b 433c ebef 033d 333c e73c 8215 003d
000000f0: f6e3 c23c f3f6 c5bc 12da 34bc b995 b0bc
00000100: bc87 8abb c8d7 76bd 3e8e 88bd d062 17be
00000110: 4363 f6bd bff3 42be 3968 a3bd 1613 a93c
00000120: e255 c43d dabd 793d 4473 d23d eb44 933e
00000130: 6d2c 253e 196f 0d3e 6ea3 1b3e 9034 193e
00000140: 0daa c13b 85fc 68bd 110b ca3c 8533 07bd
00000150: a0bc 12bc bce9 dbbc d5a6 933d 9d8f 5e3d
00000160: 9e41 0a3c 612b 80bd b14e a2bd d9de 783d
00000170: f7d9 34bd b48d 62bd 1d71 51be 5554 18be
00000180: 75c8 79bd 39d9 c0bd 4893 9bbd f55e 04bb
00000190: 0cdb 853c fc13 d13d 2fd2 093c 6e8a 523b
000001a0: 8747 113e 6fc8 0c3e 3ad2 913c fad8 803d
000001b0: 693d 5abd e510 ba3b 9b0a 44bc 7c44 aa3c
000001c0: 6762 0b3d 4eb6 d73b ea1f 523d 50cd f63d
000001d0: 578d c33d 023b 023e 0082 ac3c 64e9 8dbd
000001e0: 235f 94be 785f 84be 5a49 17be 2de2 68bd
000001f0: 149d 9fbd a2b8 62bd 12bf b9bd 987c 5dbd
00000200: 9011 babd 7b64 93bd 5a6a 81bd 0417 9bbc
00000210: c3e7 f0bb 4b81 dc3c d2a9 a9bc 5107 cb3d
00000220: 2fb6 9f3d 5a30 4b3d 00ad a53d 7144 213d
00000230: f359 4b3c 1e62 a3bc f3a6 6e3d fb68 873d
00000240: be59 813b ed07 d1bb 2462 f4bd 8463 48be
00000250: 0db6 2dbe 1015 d7bd 4384 46bd 529b 6abd
00000260: 63e4 fdbd adf2 30bd 7004 c9bd 382d 25be
00000270: 694a f6bd d5b1 7dbd 1a58 a7bd 30ed 17bc
00000280: c27e af3c b962 2bbd 8235 8dbd 3d88 c43d
00000290: 12c0 f13d 742d 82bd 7932 ed3c 0766 cabd
000002a0: b300 84bc 2279 c7bd 2fc3 e93d 7582 1b3e
000002b0: e58d 163e baf1 8b3d 0c5a ed3a 1cda 29be
000002c0: 15e9 c2bd 543f acbd 2637 12bd 376e 6fbd
000002d0: 8571 04be fc44 d2bd d510 4abd 86f7 d8bc
000002e0: 0fa3 05bd 2ef0 a53d 3ae0 d73d 36fd ad3d
000002f0: 812d 233e b5f1 d53c 1d39 323d 6fbb 403d
00000300: 0970 343e 4edb ed3d adf7 c63d 2b2a 953c
00000310: a66e efbb 81ea 8bbd 5e69 ee3a edf2 353e
00000320: b9f1 c63d e26c 2e3d fae5 95bd 5938 aabd
00000330: edc3 fbbd d327 98bd 857d 61bc 50e2 65bd
00000340: 7185 85bd e142 b9bd 22f4 673d f0b9 fa3d
00000350: 4ca6 2e3e 2969 663e 6087 fa3d fa4e 2e3e
00000360: b465 2a3e 70a9 0f3e e492 ae3d 8676 053e
00000370: 48ab a93d bf5f d93c c989 3d3d c6a3 ab3d
00000380: b502 16be 4398 c53c 1fc3 cabc 6c39 de3d
00000390: c186 ea3d 7c9b 12bb 0a47 67bd c7e5 30bd
000003a0: aae3 10be 3bcc 13be 7a00 cfbd bdf4 d4bc
000003b0: e32e e4bc 9571 1c3d 3e72 473e 647d 3c3e
000003c0: 0fd7 5c3e a69a 8c3e 5ae1 253e 9708 173e
000003d0: 02b1 213e 2ffd 063e c27b 053e e7bc f73d
000003e0: 0335 863e dd97 2a3d c197 a2bd 3fc0 713c
000003f0: 2efc 193d 0e05 973d 2edd 99bd ae39 8fbd
0.003146142 -0.021520535 0.027410006 -0.022035982 0.016893744 0.02587382 0.032605764 -0.033506554
-0.031997383 -0.0026805615 0.015250126 -0.0057359724 -0.034803584 -0.0049315863 -0.0049675875 -0.02333399
-0.027253494 0.01889698 -0.023794686 5.232862e-05 -0.024320837 -0.02056078 -0.03452038 0.008213627
0.002215956 -0.026919741 -0.0016717912 -0.02257228 -0.0008197086 -0.014349027 -0.021121627 -0.015276127
-0.014145213 0.032846846 -0.0022374776 0.0025804993 -0.054102875 -0.0261629 -0.011354429 -0.0046502138
0.022202756 -0.05553231 0.13327302 0.19699825 -0.006721084 -0.0800452 0.027521146 0.14709526
0.11735466 0.076856695 0.016113464 -0.0049134027 -0.02611285 -0.012757438 0.022158725 0.025149027
0.0119084725 0.032211225 0.028226947 0.03127051 0.02379034 -0.024165606 -0.01103832 -0.021555768
-0.0042276066 -0.06026438 -0.066677555 -0.14783788 -0.120306514 -0.19038294 -0.07978863 0.020638984
0.09586693 0.060972072 0.102758914 0.28763518 0.16130228 0.13811912 0.15199062 0.14961457
0.005910164 -0.056881446 0.02466348 -0.033008117 -0.0089561045 -0.026844852 0.07209555 0.05433618
0.008438496 -0.06258274 -0.079251654 0.0607594 -0.04415318 -0.05531092 -0.20453306 -0.1487592
-0.060982186 -0.09416432 -0.07596451 -0.00201982 0.016339801 0.1020889 0.008411928 0.0032125968
0.14187442 0.13748334 0.01780044 0.06291385 -0.05328122 0.0056782835 -0.011965419 0.020784609
0.03402939 0.0065830117 0.051299967 0.12050879 0.09548443 0.12717822 0.021058083 -0.06929281
-0.28978834 -0.25854087 -0.14774075 -0.056856323 -0.07793632 -0.05535186 -0.09069647 -0.0540739
-0.09085381 -0.071968995 -0.06319113 -0.018931873 -0.007351847 0.02691712 -0.02071086 0.09913505
0.07798421 0.04960666 0.08089638 0.03937191 0.012411582 -0.019944247 0.058264684 0.0661182
0.0039474657 -0.0063791187 -0.11932781 -0.19569212 -0.16963978 -0.10502064 -0.04846598 -0.05727703
-0.12397077 -0.043200184 -0.098152995 -0.16130531 -0.12025911 -0.061937172 -0.08171101 -0.0092728585
0.021422748 -0.041842196 -0.068949714 0.09596298 0.11804213 -0.06356326 0.028954731 -0.098827414
-0.016113615 -0.09739901 0.114141814 0.15186484 0.14702566 0.06833215 0.0018108501 -0.16587108
-0.09517113 -0.084105164 -0.035697125 -0.05845472 -0.1293393 -0.10267064 -0.04933246 -0.026485216
-0.032626208 0.08102451 0.10540815 0.08495562 0.15935327 0.026116231 0.0435115 0.04705375
0.17620863 0.11614095 0.09715209 0.018208584 -0.0073068915 -0.068318374 0.0018189361 0.1776845
0.09714074 0.042584307 -0.07319255 -0.08311529 -0.12293229 -0.07429471 -0.013762836 -0.05612403
-0.065195926 -0.09045959 0.056629308 0.12242496 0.17055625 0.22501053 0.12232852 0.17022315
0.16640359 0.14029479 0.08524111 0.13033494 0.082846224 0.026534913 0.04627398 0.08380847
-0.1464947 0.024120456 -0.024751244 0.10850796 0.114514835 -0.0022370508 -0.056464233 -0.043187883
-0.14149347 -0.14433376 -0.10107513 -0.025995607 -0.027854389 0.038194258 0.19477174 0.18407208
0.21566413 0.27461737 0.16199246 0.1474937 0.1579018 0.1318252 0.13035491 0.12096577
0.2621232 0.041648734 -0.07939101 0.014755308 0.037594013 0.07374011 -0.0751289 -0.069934234

dense_layers.0.bias f4 [256]
00000000: 6b78 463e b7b9 da3d a95a 473d 8c63 8e3d
00000010: 2276 7abd bc84 9d3c fb3c d83d ad41 51bc
00000020: 720d ae3d 7114 b3bc c987 0f3d ad1e c6bc
00000030: f2d7 67bd fd24 f3bc 3a69 47bc 9e8a b2bc
00000040: 60a7 08bc e56a cf3d 0f8b 133e bb7c 633e
00000050: 7866 2d3d eb25 183e 6913 75bd 4675 a5bd
00000060: dd7e aebd 5775 783d 64ea b33c 02f3 69bc
00000070: 4fd3 593d 6551 643d 3e9b cd3d 7cdd 793c
00000080: abd9 293d 238f 04bd 300c 193e 8f50 5c3c
00000090: 7c65 a13d 18f2 d5bc 2bcc 443d add6 cb3d
000000a0: fe37 fa3c ba44 803d ffda eebc c983 753e
000000b0: 5464 a23d 4def 8b3c 71c8 3abd 45b3 c93d
000000c0: abe7 6e3d 7df1 e93c b6cc 1fbc d76b 633c
000000d0: 3c5d c7bd 78ad ab3d aa26 edbc 7b45 88bd
000000e0: 1a9a e4b9 3995 34bd 15a4 a53d 4e95 723d
000000f0: a177 be3d 84d9 a637 92ed 833d 5609 f03c
00000100: b211 fab9 8c04 073d 8e9a cabd fe73 b13c
00000110: 092b b23d 7bdf a6bd cdd5 653d b6dd f83b
00000120: ee08 aebc 9353 de3d 0d66 c0bc 76e1 3c3d
00000130: 7bb1 3abd 7a3e d7bb 6d8a 26bd 68bd 87bd
00000140: aec5 1c3c 23b8 ab3d 54ea 0d3b af30 b13c
00000150: bbce 1abd 700b 1ebc 424d d33d e1ff d73b
00000160: de86 25bd 4e4f ea3d b3b8 0e3c 439e d23c
00000170: 131a c13d 1cb1 f83a 415d 87bd 9e61 833c
00000180: 088d 0dbd 6db6 15bd 38f0 68bd eba4 943c
00000190: a2e2 5b3e 4837 723d 7776 343d 1a54 b03d
000001a0: 80b4 bbbd 2180 343e 734c 4d3c c88d afbc
000001b0: 6ab6 1f3c 859f dabd 36aa 683d 260c 8f3d
000001c0: cb76 27bd 968d a8bc 3992 f73d caeb 95bd
000001d0: 1b3a 25bc 35e1 643d 7f19 a93d c3a8 2e3d
000001e0: d21c 8cbd 18b9 1c3d 778d 993d 2357 293d
000001f0: 14c1 533d cf74 d43d 8870 0f3e 3304 91bd
00000200: 6c4d 373d 8fcf 1abd 7732 253e b73c 743d
00000210: 2773 383c 42a5 a23d 038d 2b3c a840 2b3b
00000220: 9716 a13d d74d 5a3d 7803 73bd 778b a0bc
00000230: e10a 2b3c 7e37 c23d d6c0 153e 3879 683e
00000240: dd91 413e 7612 f43d ba0f cc3b d248 963d
00000250: 5d64 d33d 433b dc3d 4178 5a3e 07a8 673d
00000260: 9679 203c a049 0f3e 6833 d5bc 5f84 65bd
00000270: 17bd 7f3d 18cd d13c 815b 85bd c923 35bd
00000280: 6fb2 943c 1642 013e 1922 e0bc 35a6 e9bc
00000290: 2e7b 743d 7f7a b8bd 108e efbd f5b7 053c
000002a0: 7c8b efbc 25bd a73d cc1f a23c ba3f 83bd
000002b0: df93 653c 029d ff3d 25c4 b7bd 9d65 073d
000002c0: 81ef 55bd 22c2 f7bc e226 853d 8dc1 a9bb
000002d0: 8f42 2f3e 81fc 9f3c ea9e 32be d197 a13d
000002e0: 024d eeba 6eb1 10bd 2f4e 813e 5bd5 aabc
000002f0: dcba 0fbe ec25 043d fb3f 08bc 6bd9 3a3e
00000300: 3136 853d c011 cc3c c93d ab3c a7ed 183d
00000310: eb38 173e 0322 7b3d eae0 4dbc 53f7 183d
00000320: 84f3 f93c c208 ba3c 21a9 393d be2e 86bd
00000330: cbdc 7abd 0baa bc3b ce60 52bd 229c d13c
00000340: 18e9 953c f056 ac3d 9ae5 31bd 9543 e8bd
00000350: 7c82 bc3c ec6a ed3d 8d21 833c 472b f73d
00000360: 8b2d 0f3e e4c4 913d c112 21bd 4319 8f3d
00000370: bbd7 7ebd 1fec e0bc 23ae 2bbd 2373 2ebd
00000380: 6a5f 94bc 799e ca3c e8ac 643b ba2e a9bd
00000390: 54c7 acbd 4b12 5ebd 68bb 583d d898 913b
000003a0: 8c96 47bd eff8 d33d b534 d2bc 9711 1cbc
000003b0: 2139 c03d 4e5a c53b 46da 883d ea62 5f3d
000003c0: 4a71 963d 090b 813d 6609 0b3e 74fc 66bc
000003d0: c537 25bd 30e3 cebc 0ce8 e4bd 9e4e 983d
000003e0: 897b debd 6d1a 67bc ac3b c23d 976c 113b
000003f0: fbd3 023e 6c9e 653c c8c2 b4bc 0df6 ad3d
0.19381873 0.106799535 0.048670445 0.06952581 -0.061147816 0.019228332 0.10558506 -0.012772006
0.08498658 -0.021860333 0.035041604 -0.02418455 -0.056602426 -0.029680723 -0.012171084 -0.021794613
-0.008340687 0.101278104 0.14408515 0.2221555 0.04233405 0.14858215 -0.059832964 -0.08079009
-0.08520291 0.06065878 0.021962352 -0.014279129 0.053180035 0.055741686 0.10039376 0.01525056
0.04146735 -0.03236307 0.14946055 0.013446941 0.07880685 -0.026116416 0.048046272 0.099530555
0.030544277 0.062631086 -0.02915716 0.23976053 0.07929292 0.017081881 -0.045601312 0.09848646
0.058326405 0.028557533 -0.009753397 0.0138806915 -0.0973458 0.08382696 -0.0289491 -0.06653877
-0.00043602363 -0.044087622 0.08087937 0.05922442 0.09300161 1.989003e-05 0.06441797 0.029301327
-0.000476969 0.03296332 -0.0989276 0.021661755 0.086996146 -0.08148094 0.0561121 0.0075947894
-0.021244492 0.10855784 -0.023486162 0.046113454 -0.045579415 -0.006568727 -0.040659357 -0.06627923
0.009568615 0.08384731 0.0021654563 0.02162966 -0.03779481 -0.009646282 0.1031747 0.0065917824
-0.040411822 0.114409074 0.008711028 0.02571023 0.094288014 0.0018973681 -0.06609584 0.016037758
-0.034558326 -0.036550928 -0.056869715 0.018145045 0.21473172 0.05913475 0.04405829 0.08609791
-0.09165287 0.17627002 0.012530434 -0.021429911 0.009748081 -0.10674957 0.05680295 0.06984739
-0.040884774 -0.020575326 0.12088437 -0.07320364 -0.010084654 0.055878837 0.08256816 0.042641412
-0.068414345 0.038262457 0.074976854 0.041342866 0.051697806 0.10373842 0.14007771 -0.07080879
0.04475157 -0.0377956 0.16132532 0.059628215 0.011257923 0.07941677 0.0104706315 0.0026131067
0.07865637 0.05329689 -0.05932948 -0.019597752 0.010439605 0.094832405 0.14624342 0.22702491
0.18903299 0.11917584 0.0062274607 0.07338108 0.10321877 0.10753491 0.21334936 0.056556728
0.009794613 0.1399293 -0.026025489 -0.056034442 0.06243619 0.025610492 -0.065115936 -0.04422358
0.01815149 0.12622866 -0.027360009 -0.028521637 0.059687786 -0.09007739 -0.11697018 0.008161535
-0.029241316 0.08190373 0.019790553 -0.06408639 0.014012306 0.12481119 -0.089729585 0.03305589
-0.05223036 -0.030243937 0.06501557 -0.0051805438 0.17115234 0.019529583 -0.17443433 0.07890285
-0.0018180909 -0.03532546 0.25254962 -0.020853689 -0.14036125 0.032262728 -0.008316035 0.18247001
0.06504477 0.024910808 0.020903485 0.037336018 0.14767806 0.061311733 -0.012565831 0.03734524
0.030511625 0.022709254 0.04532731 -0.06551884 -0.06124572 0.0057575754 -0.05136185 0.025587145
0.018299624 0.084150195 -0.043431856 -0.11341015 0.023011439 0.11592659 0.01600721 0.120688014
0.13982217 0.07117632 -0.039324526 0.0698724 -0.062217455 -0.027456341 -0.041914117 -0.04259027
-0.018111903 0.024733769 0.00348931 -0.082608655 -0.08436456 -0.054216664 0.0529131 0.004443269
-0.048727557 0.10350215 -0.025659898 -0.009525678 0.093858965 0.006022728 0.06682257 0.05453769
0.07345827 0.06300933 0.13577804 -0.014098275 -0.04033639 -0.025254816 -0.11177072 0.0743687
-0.10863406 -0.0141054215 0.09484038 0.0022189969 0.12776177 0.0140148215 -0.022065535 0.08494196

dense_layers.2.weight f4 [10, 256]
00000000: d6ec 3fbd b2cf 633d b9f8 e03b 261e f43d
00000010: b01d dcbe 3fc6 e83c d398 1ebf ffbb a43d
00000020: eac6 40bb c3e6 043e 48d8 0ebf 36e0 30ba
00000030: 9006 f93d 2719 14bd 03f9 d3bd d922 433d
00000040: 79c5 7c3b fbdc 6f3d b2a4 acbe 5969 0dbe
00000050: 9cbc a2be b57b 5d3d d6ef 46be b3d1 f73d
00000060: 8e40 f43d 83d8 41be 6e52 1e3e 2752 b6bc
00000070: 86e4 e53d c67a 433e 4ab7 e2be b191 253e
00000080: 33ee 4bbd f3d8 333e 8490 cc3d fcbf 453c
00000090: c4f3 013e 56ba e9bd e61a df3b ae80 8fbe
000000a0: 2659 b13d d2b8 043c 9b18 5ebd b451 4bbd
000000b0: 15c0 31be aab1 d8bb 2fe9 3d3e a969 893e
000000c0: 5106 11be fe67 dd3d dbee 1abe 64a1 fe3d
000000d0: 9b39 afbe 7665 123d 4e82 e13d 6bf1 f93d
000000e0: bf5c 073c d861 13be aeb2 dfbd 63ac a23b
000000f0: 3b9a 44be cf20 bdbd c293 03be 452b 9c3c
00000100: 4c69 583d e08e 9dbe 7aa7 4f3d 3b81 3ebe
00000110: 29f0 3fbe f621 e63d eba7 83bc 7605 dcbe
00000120: 5c89 283d 0e51 093e 5bd0 7e3e 9053 123e
00000130: 0a2c c2be 2c29 9cbd 5836 cabd 2fdc 383d
00000140: 52c4 123e aa06 22bc fcee 47be 1c83 fabd
00000150: 4bc0 e2bd 4b14 1c3e 4ee7 e4bd 1e3a bc3d
00000160: b488 243c bd54 51be 48b0 dd3c a240 a4be
00000170: ead0 50bd 0b5d ebbe 4bef 65be 63ed 62bd
00000180: 9580 7cbd d8a5 58bd ece4 d63d d3c4 0fbe
00000190: b54a 8abd 62e5 b1bb d072 353b ef1f d0be
000001a0: f37d c23d a3e8 2d3d 14a2 70bd b06c bcbc
000001b0: bc5c e03c 81bd 233e d3db dabd fd50 e73c
000001c0: 3eb0 c03d 6f54 36be 7e3b db3d e580 6fbe
000001d0: 77d2 df3d 8920 3bbd 0f0f babe 35bf 093e
000001e0: e936 bf3c e499 1a3d fa5f c63d 5512 163e
000001f0: 2a93 d5bd c46d 91be 1e83 3d3e add7 8a3d
00000200: 0aef ac3d 3334 7dbd c1d2 58be 1f6c c3bd
00000210: d5c5 97be 9f65 db3d c4d3 d1be 8d86 87be
00000220: 8741 b73d e949 20be 58b7 7fbe dfcf 1e3e
00000230: 7fbf 2bbe f439 67be faaa c8bd 2f33 043e
00000240: 0045 963c 1bbd 663e 7d9c 08bd 93dc ce3d
00000250: 303d a7be 1966 0dbf 5754 a6be 9155 40bd
00000260: d973 523e a1f0 24bf d3d0 003e ebdd 303d
00000270: 3c1c 0c3e fab9 54bc 6502 15bd 3632 61bd
00000280: a883 29be b1ae d2bd 7cad f23d 02c9 c5be
00000290: 2d32 3e3e 59c9 81be 6690 71bd 5b16 293e
000002a0: 4950 f43d 46c4 df3d fde0 cfbe e4a3 123e
000002b0: bddc fa3d ce8b 9a3d 91dd 10be a587 ddbe
000002c0: 19ed babd a0d5 adbe 0a17 1abd cc10 e7bc
000002d0: 5838 c6bd 6912 47be 6450 243e 41a1 cd3d
000002e0: bd05 28be 7bce f63d 6f41 0ebe 2a3e 0a3e
000002f0: ebc7 513d b012 43be 479d 79bd 5231 13bf
00000300: c3ff f7bd a5b6 df3d 7c95 b03c ef5b 67bd
00000310: cea9 883c 1376 45be e29b dc3a 354c 27be
00000320: ad56 403e af73 913d 615a b03d fee1 74be
00000330: f631 723c 50f6 b03d 8f9f dd3c 5d6f 19be
00000340: c794 cd3d 38e0 6c3e 6fd1 063e 7198 37be
00000350: dac8 6a3d 1874 09be 8a9a 02bf 8d68 23be
00000360: f635 393d 075b 3cbd 7a30 a33d 60b4 92be
00000370: 2eec 6fbe b917 19bc 961c b23c 71df 00be
00000380: c327 60be 253f f93d 2460 e93d 2483 d7bd
00000390: 672f 1ebd 5a99 de3d bb39 2cbe 9841 013e
000003a0: 5070 023e ed4b 2b3e 1d14 0dbc a180 febd
000003b0: c269 243e 6787 58be ba04 b53d 6565 d33d
000003c0: bfb1 8cbe 1649 c83d bdf8 49bd 324f bebe
000003d0: 9fd6 763d c18e bb3d e323 003e e1dc 8c3d
000003e0: bb01 243e 7127 0b3e 3b75 65be 7c25 56bd
000003f0: a9c5 6f3c 5bb8 9e3d e61d d03d f148 0d3e
-0.046856724 0.055617996 0.0068655876 0.11919813 -0.429914 0.028414844 -0.6195194 0.0804367
-0.0029415437 0.12978654 -0.5579877 -0.0006747277 0.12159455 -0.0361568 -0.103502296 0.047640655
0.0038569851 0.058560353 -0.33719403 -0.13809718 -0.31784523 0.054073054 -0.19427428 0.12100544
0.11926375 -0.18930249 0.15461132 -0.02225597 0.11225228 0.19089803 -0.44280463 0.16168858
-0.04978771 0.17563228 0.09988502 0.012069698 0.12690645 -0.11412494 0.0068086265 -0.28027862
0.08659582 0.008100705 -0.054222684 -0.049638465 -0.1735843 -0.006612976 0.18545984 0.26838425
-0.14162566 0.108108506 -0.15130179 0.124331266 -0.34223637 0.035741292 0.11011182 0.1220425
0.0082618585 -0.14392793 -0.10922752 0.0049643978 -0.19199459 -0.09234773 -0.12849334 0.019063601
0.052834794 -0.30773067 0.050696827 -0.18603985 -0.18743958 0.11236946 -0.01607128 -0.42972916
0.04114662 0.13409826 0.24884169 0.14289689 -0.37924224 -0.076250404 -0.098736465 0.04513186
0.14332703 -0.009889284 -0.19524759 -0.122320384 -0.11071833 0.15242116 -0.1117693 0.091907725
0.010042358 -0.20442481 0.027061597 -0.3208056 -0.050980486 -0.45969424 -0.22454564 -0.05540217
-0.061646063 -0.052892536 0.10492882 -0.14039926 -0.067525305 -0.005428956 0.0027686842 -0.40649363
0.09496679 0.042458188 -0.05874832 -0.023001045 0.02738797 0.15990259 -0.106864594 0.02823686
0.094086155 -0.17805646 0.107047066 -0.23389013 0.10928815 -0.045685325 -0.36339614 0.13451846
0.023341613 0.037744418 0.09686275 0.1465543 -0.1042846 -0.28404057 0.18507048 0.06779418
0.084440306 -0.06181736 -0.21174146 -0.09542107 -0.2964312 0.10712742 -0.40981877 -0.26469842
0.08948045 -0.15653194 -0.24972284 0.15508984 -0.16772269 -0.22580701 -0.09798236 0.1291015
0.018343449 0.22533076 -0.033352364 0.10100665 -0.3266387 -0.55233914 -0.3248622 -0.046956602
0.20552005 -0.6442967 0.1257966 0.043180387 0.13682646 -0.012983793 -0.036379237 -0.054979526
-0.16554129 -0.10287226 0.11849496 -0.3862992 0.18573828 -0.2534893 -0.0589756 0.16512434
0.11929376 0.10926108 -0.4060134 0.14320332 0.12249134 0.07546197 -0.14147021 -0.4326755
-0.09127254 -0.33952045 -0.037619628 -0.028206252 -0.096787155 -0.19440617 0.16046292 0.10040522
-0.16408439 0.12051102 -0.13892148 0.13500276 0.051216047 -0.19050097 -0.060941007 -0.5749713
-0.121093296 0.109235086 0.021555655 -0.05648416 0.016682532 -0.19283323 0.0016831125 -0.16337664
0.18783064 0.07102143 0.086109884 -0.23914334 0.014782419 0.086407304 0.027053623 -0.14983888
0.10038143 0.23132408 0.1316583 -0.17929246 0.057320453 -0.13423193 -0.5101706 -0.15957852
0.045217477 -0.045985248 0.079682305 -0.2865324 -0.23429939 -0.009344035 0.021742146 -0.12585236
-0.21890168 0.12170247 0.113952905 -0.1052306 -0.038619425 0.10869093 -0.16818897 0.12622678
0.12738156 0.16728182 -0.008610752 -0.12426878 0.16055968 -0.21145402 0.08838792 0.10322074
-0.2747936 0.09779565 -0.04930948 -0.37169796 0.060263272 0.091580875 0.1251369 0.06878067
0.16016285 0.13589264 -0.22408001 -0.05228184 0.014634528 0.07750007 0.10161953 0.13797356

dense_layers.2.bias f4 [10]
00000000: d0bd b5bd d3f5 4f3d 3a79 343b 23a8 32bd
00000010: 8cb7 953d cce5 e03d ba7f 77bb 8e39 f8bb
00000020: 6167 f1bc 0b16 00bc
-0.088740945 0.050771546 0.0027538077 -0.04361738 0.073103994 0.1098133 -0.003776534 -0.0075752204
-0.02946824 -0.007817755
